…
    * inference network type: bigbrnn
    * inference network RNN type: LSTM
    * inference network RNN size: 512
    * inference network dropout: 0.3
    * inference network src layers: 2
    * inference network tgt layers: 2
    * inference network alpha trans: sm
    * inference network attn type: general
    * inference network dist type: categorical
    * TODO: RNN's could be possibly shared
Intializing model parameters.
ViNMTModel(
  (encoder): RNNEncoder(
    (dropout): Dropout(p=0.3)
    (embeddings): Embeddings(
      (make_embedding): Sequential(
        (emb_luts): Elementwise(
          (0): Embedding(11987, 512, padding_idx=1)
        )
      )
    )
    (rnn): LSTM(512, 512, num_layers=2, dropout=0.3, bidirectional=True)
  )
  (decoder): ViRNNDecoder(
    (embeddings): Embeddings(
      (make_embedding): Sequential(
        (emb_luts): Elementwise(
          (0): Embedding(8876, 512, padding_idx=1)
        )
      )
    )
    (dropout): Dropout(p=0.3)
    (rnn): LSTM(1536, 768, num_layers=2, dropout=0.3)
    (attn): VariationalAttention(
      (linear_context): Linear(in_features=1024, out_features=512, bias=False)
      (linear_query): Linear(in_features=768, out_features=512, bias=False)
      (v): Linear(in_features=512, out_features=1, bias=False)
      (linear_out): Linear(in_features=1792, out_features=768, bias=True)
      (sm): Softmax()
      (tanh): Tanh()
    )
  )
  (inference_network): InferenceNetwork(
    (src_encoder): RNNEncoder(
      (dropout): Dropout(p=0.3)
      (embeddings): Embeddings(
        (make_embedding): Sequential(
          (emb_luts): Elementwise(
            (0): Embedding(11987, 512, padding_idx=1)
          )
        )
      )
      (rnn): LSTM(512, 512, num_layers=2, dropout=0.3, bidirectional=True)
    )
    (tgt_encoder): RNNEncoder(
      (dropout): Dropout(p=0.3)
      (embeddings): Embeddings(
        (make_embedding): Sequential(
          (emb_luts): Elementwise(
            (0): Embedding(8876, 512, padding_idx=1)
          )
        )
      )
      (rnn): LSTM(512, 512, num_layers=2, dropout=0.3, bidirectional=True)
    )
    (W): Linear(in_features=1024, out_features=1024, bias=False)
  )
  (generator): Generator(
    (proj): Linear(in_features=768, out_features=8876, bias=True)
  )
)
* number of parameters: 64166316
encoder:  37643776
decoder:  26522540
Making optimizer for training.
Stage 1: Keys after executing optim.set_parameters(model.parameters())
optim.optimizer.state_dict()['state'] keys: 
optim.optimizer.state_dict()['param_groups'] elements: 
optim.optimizer.state_dict()['param_groups'] element: {'lr': 0.0003, 'bet
…
